…
Number of Seqs: 15000, Batch_size: 64, Number of Epochs: 30, Learning Rate: 0.001, Weight Decay: 1e-05, Betas: (0.9, 0.999)
Load Data!
Loaded seqs file:  RBNS_training/RBP1_input.seq
Loaded seqs file:  RBNS_training/RBP1_5nM.seq
Loaded seqs file:  RBNS_training/RBP1_20nM.seq
Loaded seqs file:  RBNS_training/RBP1_80nM.seq
Loaded seqs file:  RBNS_training/RBP1_320nM.seq
Loaded seqs file:  RBNS_training/RBP1_1300nM.seq
----------------------------------------------------------------
        Layer (type)               Output Shape         Param #
================================================================
            Conv1d-1              [-1, 512, 37]          16,896
              ReLU-2              [-1, 512, 37]               0
         MaxPool1d-3               [-1, 512, 7]               0
            Linear-4                   [-1, 64]         229,440
              ReLU-5                   [-1, 64]               0
           Dropout-6                   [-1, 64]               0
            Linear-7                   [-1, 32]           2,080
              ReLU-8                   [-1, 32]               0
           Dropout-9                   [-1, 32]               0
           Linear-10                   [-1, 32]           1,056
             ReLU-11                   [-1, 32]               0
          Dropout-12                   [-1, 32]               0
           Linear-13                    [-1, 6]             198
          Sigmoid-14                    [-1, 6]               0
================================================================
Total params: 249,670
Trainable params: 249,670
Non-trainable params: 0
----------------------------------------------------------------
Input size (MB): 0.00
Forward/backward pass size (MB): 0.32
Params size (MB): 0.95
Estimated Total Size (MB): 1.27
----------------------------------------------------------------
Start Training!
Epoch [1/30]
…
